model.tflite (tflite, 882064 bytes, 8 tensors)

conv1/Conv2D_bias f4 [32]
0	0x3bfb0592	0.007660576
1	0xbb43b3a1	-0.0029861706
2	0xbc132f00	-0.008983374
3	0xbd3c0961	-0.045907382
4	0xbd178c77	-0.036999192
5	0xbd52a167	-0.051423457
6	0xbc256f6f	-0.010097369
7	0x3d1798d8	0.037010998
8	0xbd147209	-0.036241565
9	0xbcc9f681	-0.024653675
10	0xbbfd0723	-0.007721798
11	0xbb8b2805	-0.004246714
12	0x3c083a4e	0.008314682
13	0xbd1d087a	-0.038338162
14	0xba306048	-0.0006728214
15	0xbc54c339	-0.012985998
16	0x3d8541d1	0.06506694
17	0x3d16aad9	0.036784027
18	0xbd0b2f06	-0.033980392
19	0x3d981687	0.07426172
20	0xbca927c0	-0.020648837
21	0xbb080a29	-0.002075801
22	0xbd2e27b5	-0.042518336
23	0x3d09d40e	0.033649497
24	0x39d6301c	0.00040853105
25	0x39ed092f	0.00045211005
26	0x3c18b465	0.009320353
27	0xbd0f28de	-0.034951083
28	0x3bc90dc2	0.0061356733
29	0x3cc86a01	0.02446461
30	0x3bb306a3	0.0054634376
31	0xbb8438a0	-0.0040350705

conv1/Variable i1 [32, 5, 5, 3] scale=0.0024918048 zero_point=0
0	0x26	0.09468858
1	0x24	0.089704975
2	0xfa	-0.014950829
3	0x1f	0.07724595
4	0xe8	-0.059803315
5	0x38	0.13954106
6	0x58	0.21927881
7	0xef	-0.042360682
8	0xd4	-0.109639406
9	0x44	0.16944273
10	0xfc	-0.009967219
11	0xfd	-0.0074754143
12	0x39	0.14203288
13	0x03	0.0074754143
14	0xf5	-0.027409852
15	0x0c	0.029901657
16	0x06	0.014950829
17	0xff	-0.0024918048
18	0x55	0.2118034
19	0xc9	-0.13704926
20	0x4b	0.18688536
21	0xff	-0.0024918048
22	0x0f	0.03737707
23	0x19	0.06229512
24	0x0c	0.029901657
25	0x19	0.06229512
26	0x19	0.06229512
27	0x2e	0.11462302
28	0xf5	-0.027409852
29	0x05	0.012459024
30	0xc1	-0.1569837
31	0xb2	-0.19436078
32	0x11	0.042360682
33	0xb0	-0.19934438
34	0xec	-0.049836095
35	0x05	0.012459024
36	0xde	-0.084721364
37	0xf0	-0.039868876
38	0x01	0.0024918048
39	0x21	0.082229555
40	0xca	-0.13455746
41	0xca	-0.13455746
42	0xdf	-0.082229555
43	0xb8	-0.17940995
44	0x2e	0.11462302
45	0xbe	-0.16445911
46	0xdc	-0.089704975
47	0x27	0.09718039
48	0xc0	-0.1594755
49	0x3a	0.14452468
50	0xfa	-0.014950829
51	0xd2	-0.11462302
52	0xdf	-0.082229555
53	0xff	-0.0024918048
54	0xe9	-0.05731151
55	0x02	0.0049836095
56	0xe2	-0.07475414
57	0xfd	-0.0074754143
58	0x3a	0.14452468
59	0xdb	-0.09219678
60	0xf0	-0.039868876
61	0xed	-0.04734429
62	0x33	0.12708205
63	0xf5	-0.027409852
64	0x11	0.042360682
65	0xf4	-0.029901657
66	0x2b	0.107147604
67	0x22	0.084721364
68	0x39	0.14203288
69	0x28	0.09967219
70	0x3b	0.14701648
71	0x06	0.014950829
72	0xe6	-0.064786926
73	0x34	0.12957385
74	0xc8	-0.13954106
75	0xe9	-0.05731151
76	0xbf	-0.1619673
77	0x09	0.022426244
78	0xf5	-0.027409852
79	0x25	0.09219678
80	0x03	0.0074754143
81	0xda	-0.09468858
82	0x34	0.12957385
83	0xca	-0.13455746
84	0xf5	-0.027409852
85	0x45	0.17193453
86	0x06	0.014950829
87	0x12	0.044852488
88	0x07	0.017442632
89	0x3b	0.14701648
90	0x32	0.12459024
91	0x40	0.1594755
92	0x23	0.087213166
93	0x1a	0.064786926
94	0xf4	-0.029901657
95	0x1e	0.07475414
96	0xd3	-0.112131216
97	0xe5	-0.06727873
98	0x33	0.12708205
99	0xb7	-0.18190175
100	0xc5	-0.14701648
101	0xbe	-0.16445911
102	0xbb	-0.17193453
103	0xba	-0.17442633
104	0x9d	-0.24668868
105	0xc3	-0.15200008
106	0x06	0.014950829
107	0xbd	-0.16695093
108	0x2e	0.11462302
109	0xdf	-0.082229555
110	0xbe	-0.16445911
111	0xce	-0.12459024
112	0x21	0.082229555
113	0x50	0.19934438
114	0x1d	0.07226234
115	0xe8	-0.059803315
116	0xb8	-0.17940995
117	0x2e	0.11462302
118	0x18	0.059803315
119	0xe4	-0.06977053
120	0x12	0.044852488
121	0x34	0.12957385
122	0xe4	-0.06977053
123	0xd0	-0.11960663
124	0xfa	-0.014950829
125	0xb8	-0.17940995
126	0x19	0.06229512
127	0x18	0.059803315
128	0x07	0.017442632
129	0xea	-0.054819703
130	0x0a	0.024918048
131	0xb5	-0.18688536
132	0x2e	0.11462302
133	0x3c	0.14950828
134	0xc3	-0.15200008
135	0x2f	0.11711483
136	0xda	-0.09468858
137	0xf2	-0.034885265
138	0x13	0.04734429
139	0xe3	-0.07226234
140	0x0a	0.024918048
141	0xf8	-0.019934438
142	0x1c	0.06977053
143	0x2a	0.1046558
144	0x12	0.044852488
145	0x0c	0.029901657
146	0xee	-0.044852488
147	0x2b	0.107147604
148	0xec	-0.049836095
149	0x18	0.059803315
150	0xd9	-0.09718039
151	0xfb	-0.012459024
152	0xca	-0.13455746
153	0x37	0.13704926
154	0xf0	-0.039868876
155	0x01	0.0024918048
156	0x02	0.0049836095
157	0x04	0.009967219
158	0x02	0.0049836095
159	0x2c	0.109639406
160	0xfd	-0.0074754143
161	0xe7	-0.06229512
162	0x3d	0.15200008
163	0xe9	-0.05731151
164	0x12	0.044852488
165	0xf1	-0.03737707
166	0x24	0.089704975
167	0xde	-0.084721364
168	0x19	0.06229512
169	0x59	0.22177063
170	0xbf	-0.1619673
171	0x32	0.12459024
172	0x2a	0.1046558
173	0x24	0.089704975
174	0x58	0.21927881
175	0x16	0.054819703
176	0x1c	0.06977053
177	0xe1	-0.07724595
178	0x4d	0.19186896
179	0xe1	-0.07724595
180	0xf3	-0.032393463
181	0xde	-0.084721364
182	0x13	0.04734429
183	0x2f	0.11711483
184	0x35	0.13206565
185	0xfe	-0.0049836095
186	0x29	0.10216399
187	0x09	0.022426244
188	0x43	0.16695093
189	0x1e	0.07475414
190	0x29	0.10216399
191	0x35	0.13206565
192	0x06	0.014950829
193	0x06	0.014950829
194	0x07	0.017442632
195	0x0c	0.029901657
196	0xe1	-0.07724595
197	0xd8	-0.09967219
198	0x00	0.0
199	0xea	-0.054819703
200	0x01	0.0024918048
201	0x18	0.059803315
202	0x0e	0.034885265
203	0xc0	-0.1594755
204	0xec	-0.049836095
205	0x95	-0.2666231
206	0x9c	-0.24918048
207	0xfc	-0.009967219
208	0xce	-0.12459024
209	0xc8	-0.13954106
210	0xf1	-0.03737707
211	0xcc	-0.12957385
212	0xe0	-0.07973775
213	0xe7	-0.06229512
214	0xb7	-0.18190175
215	0x24	0.089704975
216	0xf9	-0.017442632
217	0x27	0.09718039
218	0x0a	0.024918048
219	0x09	0.022426244
220	0xf8	-0.019934438
221	0x1f	0.07724595
222	0x55	0.2118034
223	0x39	0.14203288
224	0x29	0.10216399
225	0x08	0.019934438
226	0xef	-0.042360682
227	0xba	-0.17442633
228	0xdc	-0.089704975
229	0xbb	-0.17193453
230	0xb9	-0.17691813
231	0xc1	-0.1569837
232	0xff	-0.0024918048
233	0xdf	-0.082229555
234	0xf3	-0.032393463
235	0xf2	-0.034885265
236	0xf9	-0.017442632
237	0xde	-0.084721364
238	0xd0	-0.11960663
239	0xb9	-0.17691813
240	0x37	0.13704926
241	0xff	-0.0024918048
242	0x4e	0.19436078
243	0x50	0.19934438
244	0xfc	-0.009967219
245	0x27	0.09718039
246	0x20	0.07973775
247	0xe3	-0.07226234
248	0x0b	0.027409852
249	0x2e	0.11462302
250	0xd5	-0.107147604
251	0x38	0.13954106
252	0x32	0.12459024
253	0xda	-0.09468858
254	0x22	0.084721364
255	0x29	0.10216399

conv2/Conv2D_bias f4 [64]
0	0x3db846e4	0.08997896
1	0x3d8f4b86	0.06996827
2	0x3ddfbbbe	0.10924481
3	0x3db093c8	0.08621937
4	0x3da1d833	0.07902565
5	0x3d8a1a56	0.067433044
6	0x3dcb48d4	0.09926
7	0x3e153308	0.14570248
8	0x3dc54d4e	0.09633885
9	0x3da578d3	0.08079686
10	0x3db5c324	0.08875111
11	0x3dbdc46b	0.092659794
12	0x3db41100	0.08792305
13	0x3dac7e79	0.0842256
14	0x3cecec74	0.028921343
15	0x3dc2d0f3	0.0951251
16	0x3d83e311	0.06439794
17	0x3df25509	0.118326254
18	0x3db27d27	0.08715277
19	0x3d95aabb	0.07307955
20	0x3e0c038b	0.13673227
21	0x3dadfa57	0.08495014
22	0x3db12415	0.0864946
23	0x3dc358a7	0.095383935
24	0x3d9b61e5	0.07587031
25	0x3dbf9bd1	0.093558915
26	0x3d7ddd56	0.06197866
27	0x3da93cfd	0.08263586
28	0x3da8a911	0.08235372
29	0x3d6d59ee	0.05794709
30	0x3dbb68d3	0.09150853
31	0x3dfdface	0.12401353
32	0x3d8efab7	0.06981414
33	0x3dfea61c	0.124340266
34	0x3cbcaa5c	0.023030452
35	0x3db3a7ef	0.08772265
36	0x3df75ae0	0.1207788
37	0x3d6ec249	0.058290754
38	0x3d8552de	0.06509946
39	0x3d93296d	0.07185636
40	0x3dbe9fe5	0.09307841
41	0x3da2e3de	0.079536185
42	0x3dd90db3	0.10598316
43	0x3d1b966a	0.037985243
44	0x3d996ade	0.074910864
45	0x3d18c61d	0.03729831
46	0x3dcffc27	0.10155516
47	0x3d534276	0.051577054
48	0x3dd63310	0.10458958
49	0x3d430cf2	0.047619767
50	0x3d967b80	0.073477745
51	0x3d807de9	0.062740155
52	0x3d88f3fe	0.06687163
53	0x3de2901f	0.11062645
54	0x3da35f70	0.07977188
55	0x3d9d0006	0.0766602
56	0x3db49013	0.088165425
57	0x3dc06f30	0.09396207
58	0x3d99c7e6	0.07508831
59	0x3dda6173	0.10663118
60	0x3dcdcb62	0.10048558
61	0x3da9ecbe	0.08297108
62	0x3da4a9cb	0.08040198
63	0x3d526727	0.051367905

conv2/Variable i1 [64, 5, 5, 32] scale=0.0026589665 zero_point=0
0	0xa4	-0.24462491
1	0xec	-0.05317933
2	0xf9	-0.018612765
3	0x36	0.14358419
4	0xcf	-0.13028936
5	0xde	-0.09040486
6	0x29	0.109017625
7	0x00	0.0
8	0x1b	0.071792096
9	0x29	0.109017625
10	0x0c	0.031907596
11	0x1c	0.07445106
12	0xcb	-0.14092523
13	0xf8	-0.021271732
14	0xc3	-0.16219695
15	0xf7	-0.023930699
16	0x18	0.06381519
17	0x18	0.06381519
18	0xf3	-0.034566563
19	0xf7	-0.023930699
20	0xed	-0.050520364
21	0xe5	-0.071792096
22	0xf1	-0.039884496
23	0x0f	0.039884496
24	0x3e	0.16485593
25	0xff	-0.0026589665
26	0x07	0.018612765
27	0xb8	-0.19144559
28	0xda	-0.10104073
29	0xfe	-0.005317933
30	0xad	-0.22069421
31	0xea	-0.05849726
32	0xbb	-0.18346868
33	0xfe	-0.005317933
34	0x14	0.05317933
35	0xe4	-0.07445106
36	0x17	0.06115623
37	0xd7	-0.109017625
38	0xd3	-0.11965349
39	0x28	0.10635866
40	0xeb	-0.055838294
41	0xd5	-0.11433556
42	0xea	-0.05849726
43	0x18	0.06381519
44	0x0c	0.031907596
45	0x2b	0.11433556
46	0xdb	-0.09838176
47	0x46	0.18612765
48	0xd9	-0.10369969
49	0x0b	0.02924863
50	0xf9	-0.018612765
51	0xe2	-0.07976899
52	0x20	0.08508693
53	0x06	0.015953798
54	0xc4	-0.15953799
55	0x21	0.08774589
56	0x12	0.047861397
57	0xfe	-0.005317933
58	0xc6	-0.15422006
59	0x0b	0.02924863
60	0x09	0.023930699
61	0x06	0.015953798
62	0x0e	0.03722553
63	0x07	0.018612765
64	0xda	-0.10104073
65	0x01	0.0026589665
66	0x1c	0.07445106
67	0x06	0.015953798
68	0xf1	-0.039884496
69	0x2d	0.11965349
70	0x23	0.093063824
71	0xef	-0.04520243
72	0x24	0.095722795
73	0xf9	-0.018612765
74	0xf5	-0.02924863
75	0xe6	-0.069133125
76	0xeb	-0.055838294
77	0xb9	-0.18878663
78	0xee	-0.047861397
79	0xd6	-0.11167659
80	0x07	0.018612765
81	0x2b	0.11433556
82	0x41	0.17283282
83	0x01	0.0026589665
84	0x16	0.05849726
85	0x04	0.010635866
86	0x05	0.013294833
87	0xf3	-0.034566563
88	0x1b	0.071792096
89	0xea	-0.05849726
90	0xd9	-0.10369969
91	0xce	-0.13294832
92	0xf2	-0.03722553
93	0x06	0.015953798
94	0xe8	-0.06381519
95	0xec	-0.05317933
96	0xd2	-0.12231246
97	0x01	0.0026589665
98	0xc3	-0.16219695
99	0xf8	-0.021271732
100	0x04	0.010635866
101	0xfe	-0.005317933
102	0xee	-0.047861397
103	0xf8	-0.021271732
104	0x12	0.047861397
105	0xed	-0.050520364
106	0xec	-0.05317933
107	0xeb	-0.055838294
108	0x1f	0.08242796
109	0x04	0.010635866
110	0xc7	-0.15156108
111	0x27	0.10369969
112	0x1d	0.07711003
113	0xb4	-0.20208146
114	0xda	-0.10104073
115	0xdb	-0.09838176
116	0xbd	-0.17815076
117	0xf5	-0.02924863
118	0xe5	-0.071792096
119	0xc9	-0.14624316
120	0xe6	-0.069133125
121	0xb7	-0.19410455
122	0xf6	-0.026589666
123	0xfa	-0.015953798
124	0xde	-0.09040486
125	0xeb	-0.055838294
126	0x1c	0.07445106
127	0xc7	-0.15156108
128	0xe9	-0.06115623
129	0xfb	-0.013294833
130	0x25	0.09838176
131	0xf0	-0.042543463
132	0xcd	-0.13560729
133	0xbd	-0.17815076
134	0xe7	-0.06647416
135	0xfd	-0.007976899
136	0xda	-0.10104073
137	0x13	0.050520364
138	0x10	0.042543463
139	0x25	0.09838176
140	0xe5	-0.071792096
141	0xff	-0.0026589665
142	0xf3	-0.034566563
143	0x22	0.09040486
144	0x14	0.05317933
145	0xdf	-0.08774589
146	0xe0	-0.08508693
147	0xf0	-0.042543463
148	0xe6	-0.069133125
149	0xea	-0.05849726
150	0x3c	0.15953799
151	0x0c	0.031907596
152	0x2a	0.11167659
153	0x21	0.08774589
154	0x16	0.05849726
155	0x0d	0.034566563
156	0x0a	0.026589666
157	0x12	0.047861397
158	0x0f	0.039884496
159	0x11	0.04520243
160	0xcf	-0.13028936
161	0x20	0.08508693
162	0xba	-0.18612765
163	0x32	0.13294832
164	0x25	0.09838176
165	0x1a	0.069133125
166	0x07	0.018612765
167	0xd0	-0.12763038
168	0x0c	0.031907596
169	0x17	0.06115623
170	0xe3	-0.07711003
171	0x1e	0.07976899
172	0xf9	-0.018612765
173	0xce	-0.13294832
174	0x03	0.007976899
175	0xcf	-0.13028936
176	0x32	0.13294832
177	0x0e	0.03722553
178	0xdd	-0.093063824
179	0x08	0.021271732
180	0x1c	0.07445106
181	0x1c	0.07445106
182	0xd0	-0.12763038
183	0x22	0.09040486
184	0xe5	-0.071792096
185	0xd1	-0.12497143
186	0x11	0.04520243
187	0x38	0.14890212
188	0x1e	0.07976899
189	0x09	0.023930699
190	0x3b	0.15687902
191	0x1a	0.069133125
192	0xa9	-0.23133008
193	0x38	0.14890212
194	0xdf	-0.08774589
195	0x49	0.19410455
196	0x2b	0.11433556
197	0xbd	-0.17815076
198	0xeb	-0.055838294
199	0x2a	0.11167659
200	0xe0	-0.08508693
201	0xc5	-0.15687902
202	0xfc	-0.010635866
203	0xe6	-0.069133125
204	0xfd	-0.007976899
205	0x1b	0.071792096
206	0xe6	-0.069133125
207	0xef	-0.04520243
208	0xfb	-0.013294833
209	0x02	0.005317933
210	0x1d	0.07711003
211	0x2e	0.12231246
212	0xfe	-0.005317933
213	0x07	0.018612765
214	0x12	0.047861397
215	0xf6	-0.026589666
216	0xd3	-0.11965349
217	0xec	-0.05317933
218	0xe6	-0.069133125
219	0xe0	-0.08508693
220	0xdd	-0.093063824
221	0x0c	0.031907596
222	0x32	0.13294832
223	0xe0	-0.08508693
224	0xe6	-0.069133125
225	0x2f	0.12497143
226	0xdc	-0.095722795
227	0x2e	0.12231246
228	0xe6	-0.069133125
229	0x1a	0.069133125
230	0xd3	-0.11965349
231	0x42	0.17549178
232	0x2e	0.12231246
233	0xb9	-0.18878663
234	0xed	-0.050520364
235	0xe9	-0.06115623
236	0xd5	-0.11433556
237	0xfc	-0.010635866
238	0xef	-0.04520243
239	0xbb	-0.18346868
240	0x0d	0.034566563
241	0xe8	-0.06381519
242	0x12	0.047861397
243	0xe2	-0.07976899
244	0xc5	-0.15687902
245	0xca	-0.14358419
246	0x18	0.06381519
247	0xb7	-0.19410455
248	0x12	0.047861397
249	0x22	0.09040486
250	0xe3	-0.07711003
251	0xc8	-0.14890212
252	0x1e	0.07976899
253	0xfe	-0.005317933
254	0x0c	0.031907596
255	0x2b	0.11433556

fc1/MatMul_bias f4 [512]
0	0x3de3c6d7	0.1112191
1	0x3de19dcd	0.11016426
2	0x3dc989b9	0.09840722
3	0x3df555f1	0.11979283
4	0x3db545ac	0.088511795
5	0x3d806116	0.06268518
6	0x3ddaade8	0.10677701
7	0x3dafa67d	0.08576677
8	0x3db4a43a	0.08820386
9	0x3dc3d8ee	0.095628604
10	0x3dc6cfa5	0.09707574
11	0x3dbb23e9	0.09137709
12	0x3da71121	0.08157564
13	0x3e054c4f	0.1301739
14	0x3def393f	0.11680841
15	0x3db750c1	0.089509495
16	0x3db58e2b	0.08865007
17	0x3defd651	0.117107995
18	0x3d8f56b3	0.069989584
19	0x3da5d641	0.08097506
20	0x3dc47df7	0.095943384
21	0x3e00a3c7	0.12562476
22	0x3d528e6c	0.051405355
23	0x3da2e576	0.079539225
24	0x3dac8d01	0.08425332
25	0x3da8dc8e	0.082451925
26	0x3dbdb2f0	0.09262645
27	0x3de867fa	0.11347957
28	0x3dcdbb04	0.10045436
29	0x3db8c4ca	0.090219095
30	0x3db59f25	0.08868245
31	0x3dcee309	0.10101897
32	0x3db07a39	0.08617062
33	0x3dd1cbf6	0.102439806
34	0x3dec83f4	0.115486056
35	0x3da012dc	0.07816097
36	0x3dc3aa59	0.095539756
37	0x3da28317	0.0793516
38	0x3dc49204	0.09598163
39	0x3da613cb	0.08109244
40	0x3db1f58b	0.08689412
41	0x3d816558	0.06318158
42	0x3da9f5e0	0.0829885
43	0x3e02f383	0.12788205
44	0x3e033e43	0.1281672
45	0x3ddc35cc	0.107524484
46	0x3dc1b74f	0.094587915
47	0x3da926ee	0.082593784
48	0x3d910401	0.07080842
49	0x3db471c8	0.088107646
50	0x3d62ed9c	0.055402383
51	0x3dc54569	0.096323796
52	0x3daa2acd	0.08308945
53	0x3dd598ae	0.10429512
54	0x3d946e7d	0.072476365
55	0x3defcde7	0.11709195
56	0x3dbc94e4	0.09208086
57	0x3dbc919f	0.092074625
58	0x3de68f64	0.11257818
59	0x3d99be50	0.07507002
60	0x3d9ad5ab	0.07560285
61	0x3de52668	0.11188966
62	0x3db4ad25	0.08822087
63	0x3dac8c7b	0.08425232
64	0x3dd9f1ca	0.10641821
65	0x3dc9b979	0.09849829
66	0x3da5df58	0.0809924
67	0x3dc4f2db	0.096166335
68	0x3da86f86	0.082243964
69	0x3dabfb3a	0.08397527
70	0x3da2b809	0.07945258
71	0x3d95635a	0.072943404
72	0x3dd5a1b3	0.10431232
73	0x3d9d607b	0.07684418
74	0x3db9defc	0.09075734
75	0x3dedac12	0.116050854
76	0x3db7ac4b	0.08968409
77	0x3da560f7	0.08075135
78	0x3dfdfa88	0.12401301
79	0x3dac47e4	0.084121495
80	0x3daff2b7	0.08591216
81	0x3db0269d	0.08601115
82	0x3e047ecb	0.12938993
83	0x3dbf4455	0.09339205
84	0x3dbf401b	0.09338399
85	0x3db2096d	0.08693204
86	0x3dc23b00	0.094839096
87	0x3dd8ac82	0.10579778
88	0x3dc2333d	0.09482429
89	0x3df5137b	0.11966606
90	0x3dbe8006	0.09301762
91	0x3db15b3d	0.086599804
92	0x3dc12ae9	0.094320126
93	0x3dc27d41	0.094965465
94	0x3e025025	0.12725885
95	0x3da0ebf7	0.07857507
96	0x3dc6b8b7	0.097032
97	0x3d86e391	0.065863736
98	0x3dfd47fd	0.12367246
99	0x3da64309	0.08118255
100	0x3d8211ad	0.06351028
101	0x3d9cae43	0.07650425
102	0x3d95f2ed	0.07321725
103	0x3e06e2b5	0.1317242
104	0x3dc3d768	0.0956257
105	0x3db6bd34	0.089228064
106	0x3d9e297e	0.07722758
107	0x3e00fd40	0.12596607
108	0x3dae3c1f	0.08507561
109	0x3dcac023	0.098999284
110	0x3df7e003	0.12103274
111	0x3db4e18e	0.08832084
112	0x3dc4f387	0.09616762
113	0x3da09d6c	0.07842526
114	0x3dafce1c	0.08584234
115	0x3dbbc454	0.09168306
116	0x3db6ce78	0.089260995
117	0x3dd34742	0.10316326
118	0x3dd8045d	0.10547707
119	0x3dc2699e	0.09492801
120	0x3d4f04ec	0.050541803
121	0x3d8fbd5b	0.070185386
122	0x3db46fa6	0.08810358
123	0x3dd50949	0.10402162
124	0x3da24c24	0.07924679
125	0x3e07e158	0.13269556
126	0x3d8e6cf1	0.06954373
127	0x3df6471e	0.12025283
128	0x3d9a8eb8	0.07546753
129	0x3da33e80	0.07970905
130	0x3da14379	0.078741975
131	0x3e029bec	0.12754792
132	0x3df38283	0.118901275
133	0x3de16219	0.11005039
134	0x3d8aa13f	0.067690365
135	0x3d90e0d7	0.07074135
136	0x3db1b88a	0.08677776
137	0x3de6a03c	0.11261031
138	0x3e0727a6	0.13198718
139	0x3d966514	0.07343498
140	0x3dba3e70	0.0909394
141	0x3db3f8cc	0.087876886
142	0x3db85483	0.09000494
143	0x3db4c149	0.08825929
144	0x3def0395	0.11670605
145	0x3dbb4d73	0.09145632
146	0x3e0c76b6	0.1371716
147	0x3dc2dae7	0.095144086
148	0x3da1db32	0.07903136
149	0x3e015437	0.12629782
150	0x3e10467c	0.14089388
151	0x3db5bb31	0.088735946
152	0x3dbd012f	0.092287414
153	0x3dad9796	0.08476178
154	0x3d9f26bb	0.07771059
155	0x3dd844ba	0.105599836
156	0x3de0f510	0.10984242
157	0x3dd062ef	0.1017512
158	0x3dbbcf20	0.09170365
159	0x3dbbd331	0.09171141
160	0x3d706a41	0.05869508
161	0x3deac19d	0.1146271
162	0x3ddb96d9	0.10722131
163	0x3ddcf15b	0.107882224
164	0x3da8db2f	0.08244931
165	0x3ddb4c8f	0.10707962
166	0x3e11729d	0.14203878
167	0x3dc9758e	0.09836875
168	0x3e0129e3	0.12613635
169	0x3dcba577	0.09943669
170	0x3df08e9b	0.1174595
171	0x3d9b5dd8	0.07586259
172	0x3dba9d2a	0.09112008
173	0x3d9b38fa	0.07579227
174	0x3e1642e0	0.14673948
175	0x3e037b4e	0.12840006
176	0x3dad790d	0.08470354
177	0x3db2b6a8	0.08726245
178	0x3de17063	0.11007764
179	0x3de04dbe	0.10952328
180	0x3e094256	0.13404211
181	0x3db44bab	0.08803495
182	0x3dc1bb41	0.09459544
183	0x3dc2ba39	0.095081754
184	0x3daae4f1	0.08344448
185	0x3dd65092	0.10464586
186	0x3d93b5c9	0.07212407
187	0x3dc7fe20	0.09765267
188	0x3e01ec7a	0.12687865
189	0x3e08e923	0.13370185
190	0x3dd76a87	0.10518365
191	0x3deb27be	0.114821896
192	0x3dba5222	0.09097697
193	0x3de91e92	0.11382784
194	0x3de178c5	0.11009363
195	0x3e045b37	0.1292542
196	0x3dcd986d	0.100388385
197	0x3db2ac5e	0.08724283
198	0x3dc557a5	0.096358575
199	0x3d9bc906	0.076067016
200	0x3da9a2e0	0.08283019
201	0x3db902c8	0.090337336
202	0x3dc35d9f	0.09539341
203	0x3dfb512b	0.12271341
204	0x3dc9bb3b	0.098501645
205	0x3daf02cd	0.08545456
206	0x3dd2968e	0.10282622
207	0x3dfde14c	0.123964876
208	0x3df2f1a8	0.118624985
209	0x3da993ec	0.08280167
210	0x3dcce8ac	0.10005316
211	0x3dc6ce5c	0.09707329
212	0x3d9fb745	0.07798628
213	0x3e017490	0.12642121
214	0x3da31528	0.079630196
215	0x3da76df4	0.08175269
216	0x3dac7153	0.084200524
217	0x3de0cd4d	0.10976658
218	0x3df221b0	0.11822832
219	0x3d8f6f29	0.07003624
220	0x3dac0fcc	0.084014505
221	0x3da89862	0.0823219
222	0x3db8af44	0.09017804
223	0x3dd0115d	0.10159562
224	0x3dcd7793	0.100325726
225	0x3df3f960	0.11912799
226	0x3dd00dba	0.10158868
227	0x3dc9ed06	0.09859662
228	0x3dc27e5b	0.09496757
229	0x3dfa6199	0.122256465
230	0x3db41c36	0.08794443
231	0x3dc9a64b	0.09846171
232	0x3dbfcc19	0.093651004
233	0x3dc6447a	0.096810296
234	0x3d85d40b	0.065345846
235	0x3db6e7b0	0.0893091
236	0x3e0c4dfb	0.13701622
237	0x3dc13dd3	0.0943562
238	0x3dcbdec2	0.09954597
239	0x3da4b1ea	0.08041747
240	0x3d7a91bf	0.06117415
241	0x3dedec98	0.11617392
242	0x3de3784f	0.111069314
243	0x3db77f2f	0.08959805
244	0x3ddba480	0.10724735
245	0x3dd48932	0.103777304
246	0x3e059afb	0.13047402
247	0x3da75375	0.08170215
248	0x3dc0aae3	0.09407594
249	0x3df6c294	0.120488316
250	0x3da2f1e2	0.07956292
251	0x3dbeecd2	0.09322514
252	0x3dd1173c	0.1020951
253	0x3e0a0c8f	0.13481353
254	0x3e07642c	0.13221806
255	0x3db2c3c6	0.08728747

fc1/Variable/transpose i1 [512, 1600] scale=0.0057302774 zero_point=0
0	0x00	0.0
1	0xfe	-0.011460555
2	0xf3	-0.07449361
3	0xfa	-0.034381665
4	0x00	0.0
5	0xea	-0.1260661
6	0xf0	-0.09168444
7	0xe6	-0.14898722
8	0xe3	-0.16617805
9	0x17	0.13179637
10	0x00	0.0
11	0x14	0.114605546
12	0x26	0.21775053
13	0x13	0.10887527
14	0x10	0.09168444
15	0xfb	-0.028651386
16	0x03	0.017190833
17	0x16	0.1260661
18	0x13	0.10887527
19	0x0d	0.07449361
20	0xe9	-0.13179637
21	0xff	-0.0057302774
22	0xf8	-0.04584222
23	0x08	0.04584222
24	0xed	-0.10887527
25	0x04	0.02292111
26	0xf6	-0.057302773
27	0x0e	0.08022388
28	0x13	0.10887527
29	0x01	0.0057302774
30	0x03	0.017190833
31	0xef	-0.09741472
32	0x17	0.13179637
33	0xf1	-0.08595416
34	0x00	0.0
35	0x03	0.017190833
36	0xfb	-0.028651386
37	0xf2	-0.08022388
38	0xe1	-0.1776386
39	0xfb	-0.028651386
40	0xe2	-0.17190832
41	0xe6	-0.14898722
42	0x06	0.034381665
43	0xf2	-0.08022388
44	0xec	-0.114605546
45	0xfa	-0.034381665
46	0x14	0.114605546
47	0x08	0.04584222
48	0xeb	-0.120335825
49	0x0d	0.07449361
50	0x24	0.20628999
51	0x0c	0.06876333
52	0xfe	-0.011460555
53	0xf3	-0.07449361
54	0xda	-0.21775053
55	0xfd	-0.017190833
56	0x0f	0.08595416
57	0xf0	-0.09168444
58	0x0d	0.07449361
59	0xfc	-0.02292111
60	0x04	0.02292111
61	0x13	0.10887527
62	0xee	-0.103144996
63	0xf9	-0.04011194
64	0x05	0.028651386
65	0xff	-0.0057302774
66	0xf4	-0.06876333
67	0xdc	-0.20628999
68	0x22	0.19482943
69	0xe6	-0.14898722
70	0xe5	-0.15471749
71	0x13	0.10887527
72	0xeb	-0.120335825
73	0x14	0.114605546
74	0x00	0.0
75	0x1f	0.1776386
76	0x2c	0.2521322
77	0x03	0.017190833
78	0x11	0.09741472
79	0x06	0.034381665
80	0xf1	-0.08595416
81	0x10	0.09168444
82	0xfa	-0.034381665
83	0xef	-0.09741472
84	0xe6	-0.14898722
85	0xea	-0.1260661
86	0x06	0.034381665
87	0xe3	-0.16617805
88	0xf6	-0.057302773
89	0xe8	-0.13752666
90	0x03	0.017190833
91	0x22	0.19482943
92	0xf6	-0.057302773
93	0xf4	-0.06876333
94	0xfb	-0.028651386
95	0xfa	-0.034381665
96	0x03	0.017190833
97	0xfd	-0.017190833
98	0x14	0.114605546
99	0x0a	0.057302773
100	0xdd	-0.2005597
101	0x11	0.09741472
102	0xeb	-0.120335825
103	0x01	0.0057302774
104	0xf3	-0.07449361
105	0x02	0.011460555
106	0x13	0.10887527
107	0x12	0.103144996
108	0xf3	-0.07449361
109	0xfc	-0.02292111
110	0x07	0.04011194
111	0xfc	-0.02292111
112	0x05	0.028651386
113	0xec	-0.114605546
114	0xf1	-0.08595416
115	0xfb	-0.028651386
116	0x01	0.0057302774
117	0xfd	-0.017190833
118	0xf3	-0.07449361
119	0x0a	0.057302773
120	0x08	0.04584222
121	0xfc	-0.02292111
122	0xea	-0.1260661
123	0x04	0.02292111
124	0xea	-0.1260661
125	0xf0	-0.09168444
126	0xfd	-0.017190833
127	0xe7	-0.14325693
128	0x0d	0.07449361
129	0xfd	-0.017190833
130	0xfa	-0.034381665
131	0x00	0.0
132	0x19	0.14325693
133	0x10	0.09168444
134	0x0c	0.06876333
135	0x01	0.0057302774
136	0xfc	-0.02292111
137	0x01	0.0057302774
138	0xfb	-0.028651386
139	0x0c	0.06876333
140	0x20	0.18336888
141	0x19	0.14325693
142	0xe5	-0.15471749
143	0x02	0.011460555
144	0x01	0.0057302774
145	0xfd	-0.017190833
146	0x17	0.13179637
147	0x19	0.14325693
148	0xfb	-0.028651386
149	0x14	0.114605546
150	0x20	0.18336888
151	0xe5	-0.15471749
152	0xe4	-0.16044776
153	0x02	0.011460555
154	0xf3	-0.07449361
155	0xf4	-0.06876333
156	0xfd	-0.017190833
157	0xf7	-0.051572498
158	0xfc	-0.02292111
159	0x08	0.04584222
160	0x07	0.04011194
161	0xdc	-0.20628999
162	0xf9	-0.04011194
163	0xea	-0.1260661
164	0xe4	-0.16044776
165	0x05	0.028651386
166	0xfb	-0.028651386
167	0x01	0.0057302774
168	0x06	0.034381665
169	0x1f	0.1776386
170	0x05	0.028651386
171	0xf0	-0.09168444
172	0xf5	-0.06303305
173	0xfb	-0.028651386
174	0x1f	0.1776386
175	0xe6	-0.14898722
176	0xdf	-0.18909915
177	0x11	0.09741472
178	0xf3	-0.07449361
179	0x21	0.18909915
180	0xf9	-0.04011194
181	0xe6	-0.14898722
182	0xeb	-0.120335825
183	0xeb	-0.120335825
184	0xe0	-0.18336888
185	0xfd	-0.017190833
186	0x1a	0.14898722
187	0x00	0.0
188	0x00	0.0
189	0xff	-0.0057302774
190	0x0f	0.08595416
191	0xfc	-0.02292111
192	0xee	-0.103144996
193	0x01	0.0057302774
194	0xdf	-0.18909915
195	0xef	-0.09741472
196	0x08	0.04584222
197	0xeb	-0.120335825
198	0xf3	-0.07449361
199	0x06	0.034381665
200	0xff	-0.0057302774
201	0x0a	0.057302773
202	0xfd	-0.017190833
203	0x10	0.09168444
204	0xfe	-0.011460555
205	0xee	-0.103144996
206	0xff	-0.0057302774
207	0x06	0.034381665
208	0x11	0.09741472
209	0xee	-0.103144996
210	0x06	0.034381665
211	0xf4	-0.06876333
212	0xe9	-0.13179637
213	0x0b	0.06303305
214	0xf8	-0.04584222
215	0x00	0.0
216	0xdc	-0.20628999
217	0x01	0.0057302774
218	0x04	0.02292111
219	0x12	0.103144996
220	0xf3	-0.07449361
221	0xf7	-0.051572498
222	0xfa	-0.034381665
223	0xe5	-0.15471749
224	0xfc	-0.02292111
225	0xfe	-0.011460555
226	0xeb	-0.120335825
227	0xf0	-0.09168444
228	0xe2	-0.17190832
229	0xde	-0.19482943
230	0x15	0.120335825
231	0xf9	-0.04011194
232	0xe4	-0.16044776
233	0x00	0.0
234	0xf0	-0.09168444
235	0x01	0.0057302774
236	0x00	0.0
237	0x12	0.103144996
238	0x00	0.0
239	0xe1	-0.1776386
240	0x09	0.051572498
241	0x00	0.0
242	0x1d	0.16617805
243	0x0c	0.06876333
244	0x1b	0.15471749
245	0xe8	-0.13752666
246	0x17	0.13179637
247	0x14	0.114605546
248	0xf9	-0.04011194
249	0x0d	0.07449361
250	0xed	-0.10887527
251	0xdd	-0.2005597
252	0x00	0.0
253	0xfb	-0.028651386
254	0x12	0.103144996
255	0xe3	-0.16617805

fc2/MatMul_bias f4 [8]
0	0x3db410e4	0.08792284
1	0x3db4c8e1	0.08827377
2	0x3da07d4c	0.078363985
3	0x3dda6d6c	0.10665402
4	0x3dc76fe1	0.09738136
5	0x3e082c28	0.13298094
6	0x3de6719b	0.11252137
7	0x3dcdb940	0.10045099

fc2/Variable/transpose i1 [8, 512] scale=0.005361566 zero_point=0
0	0xd0	-0.25735515
1	0xf7	-0.04825409
2	0xfa	-0.032169394
3	0x05	0.02680783
4	0xee	-0.09650818
5	0x0f	0.08042349
6	0xf7	-0.04825409
7	0xfb	-0.02680783
8	0xe8	-0.12867758
9	0x12	0.09650818
10	0xf4	-0.06433879
11	0xfe	-0.010723132
12	0x06	0.032169394
13	0xfa	-0.032169394
14	0x03	0.016084697
15	0x0a	0.05361566
16	0x06	0.032169394
17	0x05	0.02680783
18	0x1b	0.14476228
19	0xf2	-0.075061925
20	0x0d	0.06970035
21	0xf7	-0.04825409
22	0x1c	0.15012385
23	0x14	0.10723132
24	0x05	0.02680783
25	0xf7	-0.04825409
26	0xed	-0.101869754
27	0xf3	-0.06970035
28	0x0d	0.06970035
29	0x01	0.005361566
30	0x00	0.0
31	0x16	0.11795445
32	0xec	-0.10723132
33	0x1f	0.16620854
34	0xe1	-0.16620854
35	0xfb	-0.02680783
36	0xf8	-0.042892527
37	0x16	0.11795445
38	0x0d	0.06970035
39	0xf2	-0.075061925
40	0x07	0.037530962
41	0xfc	-0.021446263
42	0x22	0.18229324
43	0xe9	-0.12331601
44	0x22	0.18229324
45	0xe5	-0.14476228
46	0x11	0.09114662
47	0x0b	0.058977224
48	0x0f	0.08042349
49	0x03	0.016084697
50	0x16	0.11795445
51	0x0e	0.075061925
52	0xe4	-0.15012385
53	0xf3	-0.06970035
54	0xff	-0.005361566
55	0xfe	-0.010723132
56	0xf7	-0.04825409
57	0xfc	-0.021446263
58	0x0e	0.075061925
59	0x0a	0.05361566
60	0x11	0.09114662
61	0xfb	-0.02680783
62	0xfa	-0.032169394
63	0x16	0.11795445
64	0xf7	-0.04825409
65	0x09	0.04825409
66	0x16	0.11795445
67	0xfd	-0.016084697
68	0x1f	0.16620854
69	0x0f	0.08042349
70	0x17	0.12331601
71	0x07	0.037530962
72	0x1b	0.14476228
73	0xf3	-0.06970035
74	0xf9	-0.037530962
75	0xde	-0.18229324
76	0xf1	-0.08042349
77	0xfc	-0.021446263
78	0xfe	-0.010723132
79	0xfa	-0.032169394
80	0xff	-0.005361566
81	0xe3	-0.1554854
82	0xec	-0.10723132
83	0xe5	-0.14476228
84	0xf3	-0.06970035
85	0x14	0.10723132
86	0xdc	-0.19301637
87	0xed	-0.101869754
88	0x21	0.17693168
89	0xf5	-0.058977224
90	0x10	0.08578505
91	0xe0	-0.1715701
92	0x12	0.09650818
93	0xec	-0.10723132
94	0x08	0.042892527
95	0x02	0.010723132
96	0xec	-0.10723132
97	0xed	-0.101869754
98	0xec	-0.10723132
99	0x05	0.02680783
100	0x14	0.10723132
101	0xfe	-0.010723132
102	0xf9	-0.037530962
103	0x04	0.021446263
104	0xf0	-0.08578505
105	0xff	-0.005361566
106	0x13	0.101869754
107	0xe3	-0.1554854
108	0xea	-0.11795445
109	0xfb	-0.02680783
110	0x0e	0.075061925
111	0xdb	-0.19837794
112	0xee	-0.09650818
113	0x00	0.0
114	0x0f	0.08042349
115	0x12	0.09650818
116	0xfe	-0.010723132
117	0x1d	0.1554854
118	0xed	-0.101869754
119	0x17	0.12331601
120	0x1a	0.1394007
121	0x07	0.037530962
122	0xf2	-0.075061925
123	0x03	0.016084697
124	0x10	0.08578505
125	0xf6	-0.05361566
126	0xf3	-0.06970035
127	0xfd	-0.016084697
128	0x02	0.010723132
129	0xf3	-0.06970035
130	0x17	0.12331601
131	0xeb	-0.11259288
132	0xf0	-0.08578505
133	0x13	0.101869754
134	0xfc	-0.021446263
135	0x0f	0.08042349
136	0x06	0.032169394
137	0xea	-0.11795445
138	0x02	0.010723132
139	0xf3	-0.06970035
140	0xda	-0.20373951
141	0x0c	0.06433879
142	0xfd	-0.016084697
143	0x11	0.09114662
144	0x0e	0.075061925
145	0x13	0.101869754
146	0xec	-0.10723132
147	0x0e	0.075061925
148	0x23	0.18765481
149	0xdf	-0.17693168
150	0x01	0.005361566
151	0xdf	-0.17693168
152	0xec	-0.10723132
153	0xdd	-0.18765481
154	0x20	0.1715701
155	0xe2	-0.16084698
156	0xfd	-0.016084697
157	0x0e	0.075061925
158	0xee	-0.09650818
159	0xee	-0.09650818
160	0xed	-0.101869754
161	0xf3	-0.06970035
162	0xf5	-0.058977224
163	0xff	-0.005361566
164	0x19	0.13403915
165	0xdc	-0.19301637
166	0x19	0.13403915
167	0x05	0.02680783
168	0xfe	-0.010723132
169	0xfa	-0.032169394
170	0xf1	-0.08042349
171	0x03	0.016084697
172	0xfc	-0.021446263
173	0x0c	0.06433879
174	0xfc	-0.021446263
175	0xec	-0.10723132
176	0xf7	-0.04825409
177	0x13	0.101869754
178	0xec	-0.10723132
179	0x08	0.042892527
180	0x0b	0.058977224
181	0x13	0.101869754
182	0x0c	0.06433879
183	0x03	0.016084697
184	0x1c	0.15012385
185	0xf1	-0.08042349
186	0x1d	0.1554854
187	0x17	0.12331601
188	0xfe	-0.010723132
189	0xf3	-0.06970035
190	0xec	-0.10723132
191	0x00	0.0
192	0xed	-0.101869754
193	0xf2	-0.075061925
194	0xda	-0.20373951
195	0xec	-0.10723132
196	0x12	0.09650818
197	0xf3	-0.06970035
198	0xfb	-0.02680783
199	0x05	0.02680783
200	0x03	0.016084697
201	0x06	0.032169394
202	0x13	0.101869754
203	0x05	0.02680783
204	0xe2	-0.16084698
205	0x0b	0.058977224
206	0xf3	-0.06970035
207	0x13	0.101869754
208	0xf5	-0.058977224
209	0xfe	-0.010723132
210	0x12	0.09650818
211	0xfa	-0.032169394
212	0xe2	-0.16084698
213	0x07	0.037530962
214	0x06	0.032169394
215	0xfc	-0.021446263
216	0x02	0.010723132
217	0xf3	-0.06970035
218	0xf0	-0.08578505
219	0x1b	0.14476228
220	0x03	0.016084697
221	0x0a	0.05361566
222	0x0c	0.06433879
223	0x03	0.016084697
224	0xe2	-0.16084698
225	0xfb	-0.02680783
226	0x08	0.042892527
227	0xf5	-0.058977224
228	0x0d	0.06970035
229	0xe7	-0.13403915
230	0x08	0.042892527
231	0xfe	-0.010723132
232	0xf8	-0.042892527
233	0xff	-0.005361566
234	0x25	0.19837794
235	0x00	0.0
236	0xf4	-0.06433879
237	0xfc	-0.021446263
238	0xf6	-0.05361566
239	0xf8	-0.042892527
240	0x1c	0.15012385
241	0xfa	-0.032169394
242	0x00	0.0
243	0xf6	-0.05361566
244	0x05	0.02680783
245	0x07	0.037530962
246	0x18	0.12867758
247	0x18	0.12867758
248	0x16	0.11795445
249	0x17	0.12331601
250	0x0b	0.058977224
251	0xf6	-0.05361566
252	0xef	-0.09114662
253	0xee	-0.09650818
254	0x13	0.101869754
255	0x05	0.02680783
